GeneratedOnnx/FP32/ConvTest0-11.onnx (onnx, 2482 bytes, 2 tensors)

conv0.weight f4 [3, 3, 3, 3]
00000000: 005d 7dbb b93c 423e 1481 4f3d d0e2 53bc
00000010: a05b 94bb 665c e8bd 885a 31be 8272 8e3d
00000020: 885a 053d 2eb2 973d d81f 7abd 001a 48ba
00000030: 3286 b4bd de21 90bd 4f4d 93bd cb71 023e
00000040: 686c 70bd 701e e8bc 3c54 ccbd 2092 80bc
00000050: e0d7 883c 57f5 293e 70ba fabc ae3d e23d
00000060: 7644 82bd 53f1 213e fa76 b03d 9d87 abbd
00000070: 939e 143e 95e7 f9bd f8d2 0dbe a0f8 e4bb
00000080: b1a7 253e 3893 0dbe c215 8bbd 8353 363e
00000090: a611 23be 28a7 fabc 126e d23d f3e8 e1bd
000000a0: d84a 83bd cb72 01be a0ce 21be 869b 883d
000000b0: 588b d7bc 50cf 633c 2d5c d0bd ad87 133e
000000c0: c785 123e 34c3 1fbd b877 81bc c69f 9d3d
000000d0: 6b6f 1abe b2a7 9e3d b8f9 0abd 3c9f 0f3d
000000e0: c041 3b3d fe15 833d 2774 08be 25b2 bbbd
000000f0: fe29 17be 00db 053c 44e2 553d 7ccb 0dbe
00000100: 8fc9 3d3e 79fe 16be 0d36 063e ec21 73bd
00000110: bf44 1cbe 9500 353e 961e adbd 5395 2d3e
00000120: 6695 2abe 2ec1 ed3d 6dbc 263e 003b 4abd
00000130: a8bd f33c e4b6 debd d04b 363c 5c3f 473d
00000140: 19f7 1cbe
-0.0038660169 0.18968476 0.050660208 -0.012932494 -0.004527524 -0.113457486 -0.17319691 0.069554344
0.03255704 0.07407032 -0.061065525 -0.0007633269 -0.08814658 -0.0703771 -0.0719248 0.12738721
-0.058697134 -0.028334826 -0.09977004 -0.015694678 0.0167045 0.16597496 -0.030606478 0.11046921
-0.06360714 0.15814714 0.08616443 -0.083754756 0.14513616 -0.12202374 -0.1385001 -0.006987646
0.1617725 -0.13825691 -0.06791259 0.17805295 -0.15924701 -0.030597284 0.102749005 -0.1103076
-0.0641076 -0.12641446 -0.15801477 0.06670289 -0.026311561 0.013904408 -0.10173831 0.14407225
0.14308845 -0.03900452 -0.015804157 0.0769649 -0.15081565 0.07746829 -0.033929557 0.035063967
0.045717 0.06400679 -0.13325559 -0.09164838 -0.14762112 0.008169889 0.052217737 -0.13847154
0.1853392 -0.14745511 0.13106556 -0.059358522 -0.152606 0.17676003 -0.084530994 0.16951494
-0.16658553 0.11609112 0.16282816 -0.049372673 0.029753521 -0.10874727 0.011126474 0.04864441
-0.15328635

conv0.bias f4 [3]
00000000: 17c4 443e f014 6ebc bed0 863d
0.19215427 -0.014531359 0.06582783
